LSTM_hybrid_trained_2.0_V4.pth (torch, 454914 bytes, 41 tensors)

lstm.weight_ih_l0 f4 [256, 11]
00000000: 05db 62bc 3bce d03c 2a4b 963d c2ae aa3e
00000010: c702 cfbd 2f0f 9d3d a622 ecbd 4724 aa3d
00000020: 29bd 4dbe 36bf 423e f1bf 793d d6f0 5dbc
00000030: de30 8bbb 479e 8c3d 7029 cc3e bb8f 9bbc
00000040: 3fa8 933c ef81 273e 2185 f5bd a8a1 d4be
00000050: 66c1 fd3d 39c3 92bd 53a1 7dbd 1a79 683d
00000060: 7b1b 3dbe 17e2 6fbe 372c 933c 8d0f a23c
00000070: 956b 243d c7da f6be de18 07bd 296c 503e
00000080: dda0 62be 5c9f af3e 9135 1abe 09c5 abbd
00000090: 703e 963d cfa8 4a3e 5b64 d5bd 4d1b 443e
000000a0: ceed 0e3e 034b bb3d 1dcb 20bd 0aec 55bd
000000b0: a969 bebd 00c0 0a3e 23de fc39 4ab2 353e
000000c0: 996c 98bd b18d 7f3d 5b55 54bd 5586 a8be
000000d0: c829 a2bd 3e56 bd3c dc22 af3e a385 e13d
000000e0: e6e9 4abe 924c a23c fb97 433d 8afd 853e
000000f0: bb09 063d 187a 8a3d 4c59 5cbe 777a 9c3c
00000100: da48 bdbd c730 ba3d 9d0b aa3e 6628 313d
00000110: f5bc 643e 8bc6 1e3e 01d9 063f 04ed 983e
00000120: f192 0e3e 7716 d53d f3d8 b93e b701 283e
00000130: f8d2 eabc 9bd1 8d3e fe08 46bd b14c d63d
00000140: c438 6fbe 50ad 283e c026 363d 55cc 023e
00000150: edef 8c3e b86f 033f 1976 293e c629 b43e
00000160: b2c6 4bbd 324d 023e 0b51 4a3e 8a1f 94be
00000170: a1d9 c13d 2803 433e 3ddb a83d bae3 f9bc
00000180: 61c6 0f3e 751e df3b 7f27 e93d 61a1 4ebd
00000190: a935 49be 8a93 18bd 4597 403e 83b8 03be
000001a0: fbb1 debd cc62 cabc 34fc aa3d 84fc 893e
000001b0: 2c66 073e 4b61 043e ef33 143e b472 f7bd
000001c0: c0b4 763d 2af0 f23d 5888 6b3d 8b82 0e3e
000001d0: 357a 2c3c 0068 5cbe ae1d c8bc 1077 91bd
000001e0: 5669 28be df3b babc fa8d febd 0dd8 983c
000001f0: 4cf3 163c 026b 0dbc b7bc a43d 0aa5 b13d
00000200: ec19 0abe d5c5 5cbd 3532 c2bc 152c 893c
00000210: 7280 fbbc 387c e03b 5c1f 01be 31f0 afbe
00000220: cc55 343d 08da dcbc c0ef 9b3b 73c1 a5bd
00000230: 92a1 a03d 1bcb 81bd 5746 063e 5b26 eebb
00000240: 1696 ae3d bf88 193e ea05 b6be fb89 973d
00000250: 19ce 5a3e c5c3 bd3c 8a71 64be ad34 023e
00000260: d04d f3bd 2476 053e d3ae 343d c65f b3bd
00000270: ad00 f53d 0db4 8dbe 8d36 fb3d 0327 4abd
00000280: 0c92 febc 5645 083e c6f4 443c bd01 79be
00000290: bfcf c03e eee4 393e a602 0bbe ad59 913d
000002a0: 4e46 c83e 59e3 2a3e 02a5 0d3e 6a2b f83c
000002b0: e8d6 58bd a123 273e 9fda 4a3e b183 3d3d
000002c0: 8477 5b3e 9a45 ca3d fe9a 3abe 9bf0 d23d
000002d0: e732 8b3e 2af1 b13d 26b9 713e 9168 93bc
000002e0: b0d9 83bd 4ba2 f63c 8ba3 793c 6914 02be
000002f0: 5207 c0bc 64c0 70bd 585a cc3d c90b ea3c
00000300: fa67 963d f2b4 64bd fc65 d8bd 8047 73be
00000310: 7d90 7e3d b86f 5b3d b150 c73c 2f78 24bd
00000320: b62d 303d ef39 b1be dd64 813e b916 1c3e
00000330: d9e5 fb3d a04e a7be a2d5 af3d cd5c 953c
00000340: d563 de3d d96d ea3b e96d 45be da4b 05bd
00000350: 3766 dc3d 9a01 e33d a715 7b3c 74b8 db3d
00000360: b704 9ebe 7c2f e63d f189 063e 58eb b03d
00000370: 7f85 9cbd 8ab1 90bd 042a 90bd 1d5e 9ebd
00000380: b2c1 e5bc 7969 95bd 132c 32be f487 0bbe
00000390: 2767 723e 05dd 0bbd cf55 e73d 9e5b 463e
000003a0: 150b 4c3e 0f0e 1f3d dae7 fe3c f591 723e
000003b0: 2ea3 2a3e 6730 8e3d 1e71 a7bd f0e9 c0bd
000003c0: 3fde d9bc f2b9 cbbd 8fb0 953e 00d1 10be
000003d0: 3680 813e 5039 773e 6138 f23e 9db2 773e
000003e0: fbd6 313e 3f18 a9bd 9fe4 f43c 6239 56be
000003f0: 8104 b63d b02d 0dbd cc9b af3c 4d3d 293e
-0.013846164 0.025488963 0.07338555 0.33336455 -0.101079516 0.07668912 -0.11530046 0.083077006
-0.2009169 0.19018254 0.060974065 -0.013546189 -0.004247769 0.068661265 0.39875364 -0.018989434
0.018024562 0.1635816 -0.11988283 -0.41529584 0.123904034 -0.07166142 -0.06192143 0.056756116
-0.18467514 -0.2342609 0.01796542 0.019782806 0.04014166 -0.4821379 -0.0329827 0.2035376
-0.22131677 0.3430127 -0.15059496 -0.08387191 0.07336128 0.19790958 -0.10419532 0.1915104
0.13957903 0.09145167 -0.039256204 -0.052227058 -0.09297497 0.13549805 0.0004823069 0.17743793
-0.07442588 0.062390987 -0.051839214 -0.32914987 -0.079181254 0.023112413 0.34206283 0.11011817
-0.19815788 0.019811902 0.04775236 0.26169997 0.032724123 0.06761569 -0.21518439 0.019101365
-0.09242411 0.09091335 0.33211985 0.043251418 0.22337706 0.15505426 0.5267487 0.2986833
0.13923241 0.104046755 0.36298332 0.16406904 -0.02866505 0.2769898 -0.04834842 0.104638465
-0.23361498 0.16472363 0.04447055 0.12773259 0.275268 0.51342344 0.16548957 0.3518812
-0.049750037 0.1272476 0.19757478 -0.28930312 0.094653375 0.19044173 0.082449414 -0.030504096
0.1404052 0.0068090507 0.113844864 -0.05044687 -0.19649376 -0.03725008 0.18807705 -0.12863354
-0.10873791 -0.024705313 0.08348885 0.26950467 0.13222569 0.1292774 0.14472936 -0.12082425
0.06023097 0.11862214 0.057503074 0.13916986 0.010527183 -0.21524048 -0.024428215 -0.071027875
-0.16446432 -0.022733627 -0.12429424 0.018657709 0.00921328 -0.00863147 0.08043807 0.08674057
-0.13486451 -0.053899605 -0.023705581 0.016744653 -0.030700896 0.0068507455 -0.12609619 -0.3436294
0.044027135 -0.026959434 0.004758805 -0.08093538 0.07843317 -0.063375674 0.1311277 -0.007267756
0.0852472 0.1499357 -0.35551387 0.073993646 0.21367683 0.02316464 -0.22308937 0.12715407
-0.11880076 0.13033348 0.044112038 -0.08758502 0.119630195 -0.2767643 0.12266264 -0.04935361
-0.0310755 0.133077 0.012021249 -0.2431707 0.37658498 0.18153736 -0.13575229 0.070971824
0.39116138 0.16688289 0.13832477 0.030294139 -0.052939326 0.16322185 0.1980996 0.04626817
0.2143231 0.09876557 -0.18223187 0.10299798 0.27187273 0.086885765 0.23605785 -0.017994197
-0.06438005 0.030106684 0.015236746 -0.12703098 -0.02344099 -0.058777228 0.09978169 0.028570073
0.07344051 -0.055836625 -0.10566327 -0.23757744 0.062149514 0.05357334 0.024330469 -0.04015368
0.043012343 -0.34614512 0.25272265 0.15243043 0.12299699 -0.32677174 0.08585669 0.018232727
0.10858885 0.007154208 -0.19280209 -0.03254304 0.107616834 0.1108429 0.015324987 0.10728541
-0.30862972 0.11239526 0.13138558 0.08638638 -0.0764265 -0.07065113 -0.07039264 -0.077327944
-0.028046463 -0.07295508 -0.17399625 -0.13626081 0.23672162 -0.034146328 0.112956636 0.19370887
0.19926102 0.038831767 0.031116415 0.2368849 0.1666381 0.06942826 -0.08175872 -0.0941962
-0.026595233 -0.09947576 0.29236266 -0.14142227 0.2529313 0.24142957 0.4730864 0.2418923
0.17367165 -0.08256578 0.029894171 -0.20920327 0.08887578 -0.0344674 0.021436594 0.1652729

lstm.weight_hh_l0 f4 [256, 64]
00000000: 8ba5 4bbd dc5c f1bd cdf0 5bbe 55de 8cbd
00000010: ac95 e43d 2934 1b3e 4cdb efbc fbad 583e
00000020: 4852 cf3c 8091 c53d 68d7 56bd 19d1 fa3c
00000030: 652a cabc 56ca 763c 2901 1f3e daf8 17be
00000040: a940 38be fbb3 cd3d d7dc 3bbd 9120 4b3d
00000050: c85a d0bd bdd7 94bd e94c 843d fc37 dfbd
00000060: f51a c63c 887f 843d 8564 ca3c 6927 b93d
00000070: d200 32be 88ed 9c3b 30ae 393e 53d6 f4bb
00000080: 1718 243c 9553 cfbd bbb5 eeb9 d7b9 9abd
00000090: 50b3 a0bd c511 6b3d e480 bfbd 5fb1 7abd
000000a0: 68b0 81bc afea 9bbd 4f5d c63a d571 4bbd
000000b0: 5432 103e 1623 a5bd 0d89 a4bb 1226 57be
000000c0: 8c0e b0bd 8e0a dcbd b022 bb3d 55ca 93bc
000000d0: e7e9 59bd c69f 183e 38cd 453e a001 40bd
000000e0: af9c 7dbe 1eb1 6e3d 96e6 03bc 614a d33d
000000f0: c1a4 0a3e f91f a73d 382e 273e 8878 1d3e
00000100: 8356 223e e716 19be e42b aabe 4474 33bd
00000110: b7ae 9c3e 24cb 0f3b 2b83 c0bd ded0 703e
00000120: 5ef9 b23b 64db 213e 3b4e d9bd bd12 e0bc
00000130: 0bbb adbd 7a4a 00be f39a 9d3e 0129 96be
00000140: 5b66 bc3d 848a b03d 6748 1bbd 491e f03d
00000150: 5d72 933d 38a5 803d 17dc 66be 6c55 84bd
00000160: ad43 5bbe 19a9 933e 98ef 9dbc 3ed9 97bd
00000170: 283f 0abe 1bff 36be 098c 053e bddf 6dbe
00000180: 2bad 74be c525 4f3d ec26 913e 86bf d1bd
00000190: aad7 c7bd 56d3 933c 2400 5fbe a703 b53c
000001a0: 65b0 063d 28a1 67bd dcfa db3d 8eb2 4dbe
000001b0: 9a9d 5c3e e9ba 54bd 9786 17bd c797 41be
000001c0: 10e7 8abe 2194 4cbe 3671 5abe e9e6 313e
000001d0: 5d3b 753d 59b1 76bd a1ef 553e 61e3 843d
000001e0: c312 aabe a1dc ed3d 3980 72be 8d94 453e
000001f0: 5cb8 813c cd85 2a3e 5f90 20bd a8a7 9d3d
00000200: e3d0 6f3e 8a5f de3c 7ebb 4ebd 17d9 c5bd
00000210: aee1 003e c25e 6dbc 8f96 4fbe c74d 4cbd
00000220: 3bfc 87bc 9578 2e3e 5402 d4bd c5ce 103e
00000230: 25a1 31be c45c cf3d e9af 91be 2757 23bd
00000240: 4262 2b3d 1dfc 683d 5bc4 3bbe f172 ad3d
00000250: bd3e 27bc 6578 27bb 4f6f 153e 2624 afbd
00000260: e940 01be 56a7 203e a5c4 b3bd 96d2 34bd
00000270: e576 e43d 6f51 93bd d2c0 aa3d 718e 98bd
00000280: 3c9c 0f3a a577 40be 0263 0dbd 173d 1cbd
00000290: 5dfe f3bd a6c3 cd3c 8b82 d8bd 6cf4 d4bd
000002a0: 0533 483d 364c ebbc 1900 97be 0230 d53b
000002b0: 12f3 cabd be16 e7bd c7c7 f8bc d681 94be
000002c0: 08a1 67bd 459a 1abd 24c5 5e3e bcfc f3bc
000002d0: 33f2 b6bc 489f ae3d c04c 443e dfcd 3d3e
000002e0: 7e49 c43d c93a e23d 64f9 1e3e 97fc f33d
000002f0: 1bab 833e 72b9 903d 2c37 c93a 519d 2a3e
00000300: 7010 74bd 2c1e 38bc dcd4 833e 90cd 913e
00000310: 76db e83d 64a2 93be 88bb ec3e 8f13 d8be
00000320: 967a 173d 56fc 293d c0b4 55be bc83 d2be
00000330: 62d4 8c3e 36d8 ba3d b6af 50be dd10 853e
00000340: 3743 b53d 548d e0bd 756f 993e 23a9 dcbe
00000350: f4e8 623e 3044 da3e 6c19 8b3e 728e b6bd
00000360: 24d0 36be a75d bdbe fb9d 043f fc0c cfbd
00000370: 25bc d43e 8a8d 10be be7e 81be 54e9 f93c
00000380: d1d3 143e 6349 a13e fe27 323d 9887 0ebe
00000390: 6d13 3f3e bcc2 aa3d 1edd fc3d 984b b6bd
000003a0: e5b3 e5bd 07f9 b93d 4cb4 91be 557d 7abe
000003b0: 90cb e73d 9c88 723e 8bd2 7d3e 93c2 fb3e
000003c0: 64fd 74bd 8eee 9c3e 05e6 20be c762 423d
000003d0: b2e5 69be c0a9 03be f530 dbbd 6bda 203e
000003e0: d037 393e d48f aa3c 7888 d93d fb13 b93d
000003f0: 1ccc a0be 0306 0abe 9662 98be e472 50be
-0.04971842 -0.1178529 -0.21478577 -0.06878344 0.1116136 0.15156616 -0.029279374 0.21160118
0.02530779 0.096468925 -0.05245152 0.030617284 -0.024678418 0.015062889 0.15527786 -0.14841023
-0.17993416 0.10044094 -0.045864906 0.049591605 -0.10173565 -0.07267711 0.06459982 -0.1089935
0.024182776 0.06469637 0.024706135 0.0904072 -0.17383125 0.004789058 0.18132854 -0.0074718385
0.010015509 -0.10123364 -0.00045530297 -0.075549774 -0.07846701 0.057389993 -0.09350756 -0.06120431
-0.015831187 -0.07613122 0.0015134009 -0.049669106 0.14081699 -0.08063333 -0.0050212205 -0.21010616
-0.085965246 -0.10744201 0.091374755 -0.018040815 -0.053201582 0.14904699 0.19316566 -0.04687655
-0.24766801 0.05827438 -0.008050581 0.10316921 0.13539411 0.08160395 0.16326225 0.1537801
0.15853314 -0.14950143 -0.3323661 -0.04381205 0.30602047 0.002194115 -0.09400018 0.23517177
0.005461856 0.15806347 -0.106106244 -0.027352685 -0.08482941 -0.1252841 0.3078228 -0.29328158
0.0919921 0.0862017 -0.037910845 0.117245264 0.071995474 0.06281513 -0.22544895 -0.064616054
-0.21412535 0.2883995 -0.019279286 -0.074144825 -0.13500655 -0.17870753 0.130417 -0.2322988
-0.23894183 0.05057313 0.28350008 -0.10241608 -0.097579315 0.018045109 -0.21777397 0.022096468
0.032883067 -0.056550175 0.10741207 -0.20087644 0.21544495 -0.051936064 -0.03699359 -0.18905555
-0.27129412 -0.19978382 -0.21332249 0.17373241 0.059871066 -0.060227726 0.20892192 0.064886816
-0.3321744 0.11614347 -0.23681726 0.19294949 0.01583498 0.16652603 -0.039200183 0.076979935
0.23419528 0.027145166 -0.050471775 -0.09660547 0.1258609 -0.014487924 -0.20272277 -0.04987886
-0.016599765 0.17038186 -0.103520066 0.14141376 -0.17346628 0.101251155 -0.2845452 -0.039878037
0.041841753 0.05688106 -0.18336622 0.08469189 -0.010207829 -0.0025553938 0.14593242 -0.08551817
-0.12622418 0.15688834 -0.08777741 -0.044146143 0.1115549 -0.071932666 0.08337559 -0.074490435
0.0005478298 -0.18795641 -0.03451825 -0.038144197 -0.1191375 0.025117707 -0.10571774 -0.10398182
0.04887678 -0.028722864 -0.29492262 0.006505967 -0.09909643 -0.112836346 -0.030368699 -0.29005307
-0.056550056 -0.03774478 0.2175489 -0.0297836 -0.022332286 0.08526474 0.19169903 0.18535565
0.0958433 0.11046369 0.15524822 0.11913412 0.2571648 0.07066621 0.0015351526 0.16661574
-0.05958599 -0.011237662 0.25748336 0.28477144 0.11369984 -0.28834832 0.46236825 -0.42202422
0.03698214 0.041500412 -0.20869732 -0.4111613 0.27505785 0.0912327 -0.20379528 0.25989428
0.08850711 -0.10964456 0.29967847 -0.4309779 0.22159177 0.42630148 0.27167833 -0.08913888
-0.17852837 -0.36985514 0.5180356 -0.101098984 0.41549793 -0.14116493 -0.2529201 0.030506767
0.14533927 0.31501302 0.04349517 -0.13918912 0.18659754 0.08337924 0.12346862 -0.08901137
-0.11215953 0.09080701 -0.28457868 -0.24461873 0.11318123 0.23684925 0.24787347 0.49171886
-0.059811965 0.30650753 -0.15712745 0.047457483 -0.22841528 -0.12857723 -0.10702697 0.1570832
0.18087697 0.020820536 0.106217325 0.09037014 -0.31405723 -0.13478856 -0.29762715 -0.20356327

lstm.bias_ih_l0 f4 [256]
00000000: a2ba 26bc dbb0 063e 400f 5f3e 2cc5 8d3d
00000010: 6cad 973d 08ef d4bd 23ff 9a3e b9ce 093e
00000020: e002 b73d 1ffe f7bc 5f50 1f3c 1ac9 043d
00000030: d106 e9bd b7ef 7a3d 346c babc 6a24 b83d
00000040: 0540 6d3e 8ec6 be3d 5056 453e b945 b4bc
00000050: 7f04 413d 0abd 483e bb81 01ba 4615 42bd
00000060: 790d ca3d 4d8e 213e a466 d83a f8ed 3d3d
00000070: e1ac b33d 159e a73d 4c05 ff3d b756 ebbc
00000080: 06b0 e0bd d500 99bd dbc2 573d 827d 533d
00000090: 0f7e 70bc 2339 40bd ad88 06bd a201 f33d
000000a0: bda6 9fbd 04ba cabc fa2c a53e b46a b2bd
000000b0: e0f2 bbbd 66b5 9cbd fd93 08be c89f 173d
000000c0: 7e7e e83d 06ea 8ebd 973c 11bd 63d4 eb3d
000000d0: dbf2 0c3e 5bb0 a8bc 8ee3 c83c afb9 7f3d
000000e0: fac3 073e b43c e8bd 6820 763e da0b 3cbd
000000f0: 165e be3d df02 4b3e 07b5 80bd cd30 8b3c
00000100: 1e92 013d e766 78bd b748 d83c cad7 173d
00000110: 2f0f 63bd 0e00 e3bd 37fe 04be 3ecf 80bd
00000120: bd01 a73d 560b 2cbb 7b3a 4bbe 2a24 e83c
00000130: b778 c0bc 66b2 9b3d c0f5 1dbe d654 6dbd
00000140: 6718 2d3d 028d 03bd 171b 4fbd a43b 02bc
00000150: a988 893c 4797 9e3d 9949 52bd 0841 d83d
00000160: dcd9 8ebb 771e a13a 76c0 513d 5ab3 35bc
00000170: c2c4 313c b25a 703c 855d 0dbd 6517 33be
00000180: 673c 06be 25dd fbbd ce4b bebd 4761 793d
00000190: a6ff c43c fdfe 64be 8522 45bd f944 703d
000001a0: 24d0 4fbd a63a 22bd b530 f2bd 4e94 7bbd
000001b0: b0ee 0fbe 3c4a 323c 8288 8a3c f5c9 8a3d
000001c0: 5745 88bd 4148 a7bd b968 0c3e bbc0 d0bc
000001d0: 0a91 30be 4aba 683d c6d3 c23d fac5 4abd
000001e0: e169 dcbd 8b53 2d3b e698 28be 2cc7 c7bd
000001f0: 6fab be3c 628a 563d 0298 1bbd e897 3fbe
00000200: 2360 943d adb8 78bd 71d3 86bd 10ab 49bd
00000210: 0e46 00bd 09c9 63bd bb2d 00bd cafa ad3d
00000220: 500d c5bd 15dc 813d 77ee 45bd e2f1 083d
00000230: d453 c2bd 53f2 bc3d e68a 593d e7d1 59bd
00000240: 0cf1 88ba 5a03 7abc d892 51b9 7bec 933d
00000250: 094f 19bd 30a1 ee3b 7995 be3d 74a9 c6bd
00000260: 333e adbc a772 d43d 090c 31bd 6f05 94bc
00000270: 8595 86bd 234c a0bd 5d5f 593d cc95 76bd
00000280: c6ca 0fbd 72ed 61bd cda3 24bd a915 c8bd
00000290: afec 3cbd 8353 28bc 91d4 41bd 6d0c 77bd
000002a0: c641 983d 2ab9 79bd 3d03 acbb db05 d83b
000002b0: 090f 35bd 395f a2bd 7684 133d 4ef3 043d
000002c0: d045 10bd e441 0ebe 669b d0bc a242 783c
000002d0: 1b4f f73d 210d b13d 396b a53d 5b29 8abd
000002e0: a141 553d a5b0 b33d 2aa8 6e3d 83e1 483d
000002f0: 33e8 1b3e 3587 a03d 34a1 193d 3315 873d
00000300: d242 e3bc 43e3 213e a203 643e 084e 2cbd
00000310: 5761 76bc d263 04be 38d0 623e 312f 213e
00000320: 6606 423e 150e 3e3d 5623 143d 434a 673d
00000330: 9f2f 3b3d b934 9e3d 1e0e 153d 2793 243e
00000340: 7d1c 0f3e 2ee3 38bd 223c 033d 71b6 71bd
00000350: ee3d 07be 993e a93d c60b 433e 54f4 323e
00000360: 4399 0f3e 26f8 b0bc 890f 6e3d 3cd4 26bd
00000370: 245c 5f3d c3d4 d73c 1cfa fbbd b436 d63c
00000380: 003e d53c 64e9 93bd 8464 e2bc 916a 1e3e
00000390: 49dd b23c b08d 5cbe b22c cbbd f149 6f3d
000003a0: 90c0 f63c a6e4 03bd 5a59 bc3e 741d 343d
000003b0: 2ac7 013e 4868 bdbd 2695 5cbd a2ef 453d
000003c0: 81d8 d63d 9cfa 113e 764d 37bd 136f 3b3e
000003d0: 888a 973d 39d2 1b3e d2f1 59bb fd85 85bd
000003e0: 0b76 783e 0768 38be 1a1a 9f3c bea7 4dbd
000003f0: e65d 59bd 2d89 3c3e f073 a1bc 6b21 10be
-0.010176333 0.13153403 0.21783161 0.06922373 0.074061245 -0.10397154 0.3027278 0.13457765
0.08936095 -0.030272542 0.009723752 0.032418348 -0.11378253 0.061263766 -0.022756673 0.089913204
0.23168953 0.09315215 0.19271207 -0.022005903 0.04712343 0.19603363 -0.0004940291 -0.04738357
0.09865851 0.1577694 0.0016510081 0.046369523 0.087732084 0.08184449 0.12452182 -0.028727872
-0.10971074 -0.07470862 0.052676063 0.051633365 -0.014678492 -0.04692949 -0.032845188 0.11865546
-0.07795475 -0.024746902 0.32260877 -0.08711758 -0.09177184 -0.076517865 -0.13337703 0.037017614
0.113522515 -0.0697823 -0.035458174 0.11515119 0.13764517 -0.020591905 0.024522569 0.06243294
0.13258353 -0.11339703 0.240358 -0.04590974 0.09295289 0.19825314 -0.06284528 0.016991043
0.03163349 -0.06064501 0.02640186 0.037071027 -0.055434402 -0.11083995 -0.129876 -0.06289528
0.081546284 -0.0026251874 -0.19846527 0.028337557 -0.023495061 0.07602386 -0.15425777 -0.057942234
0.0422596 -0.032116897 -0.050562944 -0.00794879 0.016788797 0.077436976 -0.05133972 0.10559279
-0.004359467 0.0012292404 0.051208936 -0.011090124 0.010850133 0.014670061 -0.034513015 -0.17489393
-0.13108979 -0.12298039 -0.09291802 0.060883787 0.024047684 -0.22362895 -0.048128624 0.058659527
-0.050735608 -0.039606713 -0.118256964 -0.06142073 -0.14055896 0.010881957 0.016910795 0.067768015
-0.066538505 -0.08168078 0.13711824 -0.025482526 -0.17242828 0.056818284 0.09513049 -0.04950521
-0.10762382 0.00264475 -0.16464576 -0.09754786 0.023275105 0.052378066 -0.037986763 -0.18710291
0.07244899 -0.060722996 -0.06583298 -0.049235404 -0.03131681 -0.055611644 -0.031293612 0.084951
-0.0962168 0.063408054 -0.04832312 0.033433802 -0.09488645 0.09225907 0.05311098 -0.053178694
-0.0010447814 -0.015259588 -0.00019986497 0.072228394 -0.03742889 0.0072823986 0.093058534 -0.09700289
-0.021147823 0.10373431 -0.04322437 -0.018068997 -0.06571487 -0.07827022 0.05306946 -0.06020145
-0.03510549 -0.055158086 -0.040195275 -0.09769756 -0.046124157 -0.010273817 -0.04732186 -0.060314585
0.0743442 -0.0609676 -0.0052494095 0.006592495 -0.04420379 -0.079283185 0.036014996 0.032458596
-0.03522283 -0.13892323 -0.025464725 0.015152605 0.12075635 0.08645082 0.08077092 -0.06746169
0.05206454 0.08773927 0.058265842 0.04904319 0.15225296 0.07838289 0.03750725 0.0659584
-0.027741823 0.1580935 0.22267011 -0.042066604 -0.015037856 -0.12928703 0.22149742 0.15740658
0.18947753 0.04640015 0.03616651 0.056467306 0.045699712 0.077249 0.036390416 0.16071759
0.13975711 -0.04513853 0.03203977 -0.05901188 -0.13207218 0.08263893 0.1904746 0.17476016
0.14023308 -0.021602701 0.058120284 -0.040729746 0.05453123 0.02634657 -0.12303564 0.026149131
0.02603054 -0.0722225 -0.02763582 0.1547034 0.021834033 -0.21538424 -0.09920634 0.058420125
0.030121118 -0.032200478 0.3678692 0.0439734 0.12673631 -0.09248406 -0.053853177 0.048324235
0.104905136 0.14255756 -0.044751607 0.1830409 0.073994696 0.15216912 -0.0033255708 -0.06519697
0.2426378 -0.18008433 0.019421626 -0.0502088 -0.053068064 0.18411703 -0.019708604 -0.14075248

lstm.bias_hh_l0 f4 [256]
00000000: 8c3a 50bd 5f93 0a3e a934 c93c 9666 bb3d
00000010: f4a9 b03c 09b6 95bb b693 6b3e 1503 5b3e
00000020: 2e6e 6b3e 000e 20bd 0273 2a3c ae9f b8bd
00000030: e336 b13d 2d00 73bc 2837 b13c 5aed a93d
00000040: 41fa 9a3d 1665 efbd 0829 673d b797 d1bd
00000050: ddcc adbd 4366 a03d 5894 453e 7cbe 093e
00000060: 8b07 ccbc 86df 98bd 464f f53d d97d 1c3e
00000070: d7f0 98bc 3bb9 8b3d 1f25 e3bc 4b09 9d3c
00000080: e038 01be 1bdb 883d 6589 db3d 8cbf 093e
00000090: 5c8a e03d 2dfd 37be c2f4 a9bd e901 83bd
000000a0: 2fa1 a43d 00b2 b33d 7656 373e e601 7cba
000000b0: 2ca3 f03d 4abf eebd 4527 56bd 6b8b 7e3d
000000c0: f912 133e e085 d93d f59c 3abd 3c23 15bb
000000d0: cf6c 253d 097e a13c e27c acbc 1112 1bbd
000000e0: 5cf8 193e 6fb8 16be 9f55 033e b8c9 2cbb
000000f0: 6f45 433d f043 ba3d 7c8d d2bc b8d3 29be
00000100: 3989 a13d e1e9 7ebd 8c70 2b3d 80a6 b3bd
00000110: 784e d83b 9646 283d 141e 7abe 1366 35bc
00000120: 33d0 e53d 9e14 4b3d 3d9f 10be 2056 2bbe
00000130: 7f14 cfbc d2a5 bebc 08e5 66be a211 053d
00000140: 5427 e33d a6af 48be c356 b2bd c77f e2bd
00000150: 6aa8 7ebd 8851 0a3b 7c88 80be 38b3 33bd
00000160: e82a a7bc c2ad 063e 2be0 8f3d 4032 b6bd
00000170: c2c8 efbc ad3f 11bb fdab 1dbe 27aa b9bd
00000180: a388 293c c315 053b 16ee ab3d 31ff 153c
00000190: 2a9f 343b 3dbb 17be bea9 c43c 47e9 c53d
000001a0: 6b90 25bd ddf0 d7bc 31c5 95be ac70 823d
000001b0: 24fb 42bd e21e 24be 8589 d13c e866 0bbe
000001c0: d445 dc3c 0614 293d 1077 3b3c ff23 28bc
000001d0: 38b5 0cbc c243 403d 0d9f 4bbc a525 7fbc
000001e0: 1532 c8bd db06 1fbe e64c e03b f001 f9bd
000001f0: b269 45bc e1ab d03d 5d6b a3bd 7e6a 28be
00000200: b191 8bbc 6a6f 8d3d 4244 45bd d337 00be
00000210: 841e 853d 3a55 113e cb6d 00be d44f b53d
00000220: 7a15 f33d af9f d83b dde4 a23d f706 a23c
00000230: 3c6a e9bd 7a01 2ebc 0996 9ebd 3f11 3dbd
00000240: 308c 033e 03ee 2a3d b6cf 15bd a6cc 763c
00000250: 7645 a93d 568e 4f3d a094 e9ba d4ba 22bc
00000260: 5e70 34bc 36e5 0f3d 43bf f5bd dbb8 bdbc
00000270: 11c5 ae3c 49a4 0abd a624 d93d 1c06 903d
00000280: 0272 9dbd 6ebc d6bd c6d6 8c3d 2b47 983d
00000290: 5bf5 d93d d363 333d d786 3e3c 2035 aebc
000002a0: 36ad 91bd 920e 623c 503e acbd 390b b8bd
000002b0: b294 473b 864d 28bd 3c56 6abd 5b42 6dbd
000002c0: 9eb5 01be 32c0 e83c 4ec8 f93d d06c 50bc
000002d0: 8f60 26bd 7f02 03be 6fa1 cc3d 7c08 653d
000002e0: 1d43 aa3d e17a 62bd c8ce a83c 154b 7b3d
000002f0: fc4d d43c cd0f b03d f0ca a13d 851a 6b3d
00000300: 688f 6bbc 0d61 ffbc ae39 ad3b 281e 48bd
00000310: b0f5 ac3d 8a33 303d 81ed be3e e6cb 433d
00000320: 7823 123e 13de a23c 067e a1bc 9a71 06bd
00000330: 93dc 42bd 7f13 0f3e ca12 bbbd fde1 96ba
00000340: 10c0 503c 4c6f d5bd f383 f33d 0922 15be
00000350: 555a 02bd c264 9fba c0fd 5e3e a93a 2abd
00000360: 146e 7dbd c19a f53d b628 233c 7188 333c
00000370: 3cda 2d3d b3c9 74bd bd10 e2bc a84b 883d
00000380: 80ef 1cbc af14 3abd 54cb 153e 0ac3 a73d
00000390: c52a b63c 38c4 37be 34d7 5e3d 498d e6bc
000003a0: c099 e03c 6286 70bd 60cd 9b3e 92bc a43d
000003b0: 542e 963d d280 f5bc 2523 c8bc 8fcc 1c3e
000003c0: 8056 b7bc 5435 0f3d fab5 c7bc b132 b43c
000003d0: c458 afbd 41ae 49bd cbff 953d 48e5 d13c
000003e0: 40bf 7f3e 0a86 99bd bc04 583e 0a14 673d
000003f0: a2fc c1bc 15e7 163e a32a 62bc 316d ebbd
-0.050837085 0.1353278 0.024561243 0.09150426 0.021565415 -0.0045688194 0.23005566 0.21387894
0.22991249 -0.03907585 0.010403397 -0.090148315 0.08653047 -0.014831585 0.021632746 0.08297224
0.075672634 -0.116892025 0.056435615 -0.102340154 -0.0848634 0.07832005 0.1929487 0.1345157
-0.02490594 -0.07464509 0.11978011 0.15282382 -0.018669529 0.06822439 -0.027727662 0.01916947
-0.12619352 0.06682416 0.10719565 0.13451976 0.1096389 -0.17967673 -0.08298637 -0.06396849
0.08038556 0.08774185 0.17904076 -0.000961332 0.117498726 -0.11657579 -0.052283544 0.062144678
0.14362706 0.10621238 -0.045559842 -0.0022756597 0.04038697 0.019713419 -0.021055643 -0.037859026
0.15036148 -0.14718793 0.1282563 -0.002636535 0.04767364 0.09094989 -0.02570223 -0.1658467
0.07887501 -0.062234763 0.04185538 -0.08771992 0.006601151 0.04108294 -0.24425536 -0.0110717
0.112213515 0.04958021 -0.14123245 -0.16732073 -0.025278328 -0.023272429 -0.22548306 0.03248752
0.110914856 -0.19598255 -0.08707955 -0.11059528 -0.06217233 0.0021105725 -0.2510413 -0.04387209
-0.020406201 0.13152221 0.070251785 -0.08896303 -0.029270533 -0.0022163198 -0.1539764 -0.09065657
0.010347518 0.002030716 0.08395021 0.009155081 0.002756069 -0.1481752 0.02400672 0.09663635
-0.04042093 -0.02635997 -0.29252008 0.06369147 -0.047602788 -0.16027406 0.02557827 -0.13613474
0.026888765 0.04127886 0.011441961 -0.010262488 -0.008588128 0.04693962 -0.012428057 -0.01557294
-0.097751774 -0.15529959 0.0068451045 -0.12158573 -0.0120491255 0.10189033 -0.07979462 -0.16446874
-0.017037245 0.06906016 -0.0481608 -0.12521295 0.06499961 0.14192668 -0.12541883 0.08853117
0.11869331 0.0066108326 0.079538085 0.019778712 -0.11397216 -0.010620469 -0.07743461 -0.046159025
0.12846446 0.041730892 -0.03657504 0.01506344 0.08265202 0.05067285 -0.0017820783 -0.009932239
-0.011013119 0.035130702 -0.11999371 -0.023159435 0.021334203 -0.03384808 0.10602693 0.07032415
-0.07687761 -0.10485159 0.06876902 0.07435449 0.10642501 0.04379637 0.011628828 -0.021265566
-0.071131155 0.013797419 -0.08410323 -0.089865156 0.003045362 -0.041089557 -0.057211146 -0.05792461
-0.12666938 0.028411958 0.12196408 -0.012721255 -0.04061943 -0.12793921 0.099917285 0.055916294
0.08313582 -0.055292968 0.020606413 0.0613509 0.025916092 0.08596764 0.079000354 0.057398338
-0.014377452 -0.031174207 0.005286417 -0.048856884 0.08445299 0.0430179 0.37290576 0.047801875
0.14271343 0.019881284 -0.019713413 -0.032823183 -0.047573637 0.13972281 -0.09134443 -0.0011511442
0.012741104 -0.10421619 0.11890402 -0.14563765 -0.03182443 -0.0012160765 0.21776485 -0.04155985
-0.061872557 0.119924076 0.009958437 0.010957823 0.042444453 -0.059762668 -0.027595872 0.06655055
-0.009578586 -0.04542988 0.14628345 0.081914976 0.022237191 -0.17945945 0.054404452 -0.028143542
0.027417064 -0.058721907 0.30430126 0.080437794 0.07333055 -0.029968653 -0.02443082 0.15312408
-0.022380114 0.034962967 -0.024378765 0.021996828 -0.085618526 -0.049238447 0.07324179 0.025622025
0.249753 -0.07496269 0.21095556 0.056415595 -0.023680035 0.14736588 -0.013804111 -0.11495436

fc_layers.0.weight f4 [64, 64]
00000000: a0fe 25be 1d38 003e 8793 d3bc d831 2cbd
00000010: 6efb f4bd ce1e adbc bafe e0bd be29 043e
00000020: 6af2 6d3e b6e0 07be 0249 f13c 25f4 d8bd
00000030: bf11 10be 7c68 c93d dfd2 bc3c f897 023e
00000040: 5b3d 013e 3f2e f2bd ba15 94bd 79b6 523d
00000050: 3a73 17bd d434 3b3d 8a8f 42bd 752c 32be
00000060: 5b81 21be 9c67 233e 1604 b9bc a1a3 abbd
00000070: 65a1 3f3e 48e1 25be c3f3 963c 93a6 e03d
00000080: 4138 80bd 40f7 59bc 2ef9 30be cdad c5bc
00000090: e988 2cbc b009 2e3c af68 153e 2ce2 29be
000000a0: c026 a93d f504 00be 380c 3ebe 0c9e 35be
000000b0: 8a19 f63a 9e36 b6bd 3d4c 99bd ed85 083e
000000c0: b3ff 2bbe edf2 5bbd 9908 1c3e 2efc 353d
000000d0: 203a 2dbd bf8d 223c db1b 4b3e 5eb3 7abd
000000e0: ed83 9b3e 7629 32bd 0b20 163e a1cf b73d
000000f0: 5c06 9b3c ec19 f93c c70a 31bd 4587 0f3e
00000100: c46d 06bd ee4b 1abe f82e d83c 06e0 c8bc
00000110: 02d0 293e 83cd 3a3d 6e21 553d 17e0 febd
00000120: 222e 5dbe 3d17 823b 5093 383d 8efb 083e
00000130: 4808 853d d36b 19bc 1dc9 84bc be2b 9bbd
00000140: 0bc7 66be 8c81 db3d 9c73 b5bd f120 8c3d
00000150: d349 253d 7cfb 20be 5bf8 4e3b 5e77 483d
00000160: dde1 823e 5d71 083e d2c9 a33d e451 303e
00000170: ec10 44be 87b7 323e 4abf ba3b 1197 0cbe
00000180: f8f4 38be d9e5 27bc 87a9 403e c217 8ebe
00000190: 7f63 5d3d bb9f 8b3d 86a8 e4bc 8496 d53c
000001a0: ceb4 90bd 0622 1e3b 9cff 0d3e 37dd de3c
000001b0: f9ac 35be b430 babd e577 73bd a6ea 04bd
000001c0: fa79 113e 6c7e 36be 06ab 10bd 7d3e 32be
000001d0: eceb 073e 2093 bf3d d1bf 22be a7a6 4a3d
000001e0: e367 c4be 01b3 ab3c e650 3cbe 6fe4 19be
000001f0: a96e aebd 9a30 75be 3ae3 6d3d 2525 793d
00000200: 386b fabd bdb5 e33d d3f1 c3bd eb16 f0bc
00000210: 5560 09be c8fe 05be edcb 1bbe ee02 e23c
00000220: 1f0a 973e 922d b63d aaf0 39bd ec9a 5d3d
00000230: 5bf0 b13d 5afe 1c3d 474a e6bd 738d 09ba
00000240: a0b7 6b3d 9315 14be 3ede a6bd 2da4 ecbd
00000250: 2abf cb3c 975c 29bd 8f92 823e f801 26bd
00000260: c45f ce3c 3e48 d33b 69f9 41bd 22e9 12be
00000270: e5d8 b33d 8e39 f1bd 57e3 d0bd 5bed acbd
00000280: dc1e e93c 8cec 573c 9db5 eabd 84b6 db3d
00000290: ff9e c4bc 589a 523d fff5 293e 03a9 01be
000002a0: 4a55 b4bd a4f3 573c 1d25 52be e4a2 50be
000002b0: cc58 c73d 3f55 3bbc 99b2 ac3c 08f7 bf3d
000002c0: e0d3 19be 38fb 07bd 524d 1e3e 98bd a6bc
000002d0: 3682 653d e3e0 b7bb e822 6d3d 72ab 1c3d
000002e0: 9821 5c3d ab76 87bc 7256 ac3d 4f68 9f3d
000002f0: 3336 89bd b560 a13d 90a6 743d f369 c93d
00000300: a0d1 5dbc 623b 23be 7001 8d3c 9059 093d
00000310: 47a5 893d af93 fbbd d431 6f3e 2114 9dbc
00000320: 8042 d1bd 1f39 713d 163c 21be 422e fbbd
00000330: e359 bfbd cc45 a6bd 8374 59bd 2f8b 2bbe
00000340: 898d 89be 913d 08be 195b 053e 9940 adbd
00000350: f674 f1bd 16f5 a0bd 497f c4bd 61e9 3e3d
00000360: 6686 483d 22e8 98bd 5448 323d 0c83 813b
00000370: c57e 55bd 9b2c b2bd 2179 433e ea57 b6bd
00000380: fa73 913c 6339 9b3c 286a b9bd 1174 7fbe
00000390: e1c3 2c3e 00e5 e73d 76d5 d93d f294 74bb
000003a0: 264a a6bd f545 8d3d 38d0 a93e d280 1bbe
000003b0: c6b3 4bbd 97bc d63d e085 81bc 86e0 13be
000003c0: 2dc2 07bd e807 cabc e914 013e cbf6 853c
000003d0: 4f9d 483e bd1e f5bd f294 e7bd 1e14 c43d
000003e0: 3348 9cbe 7fb5 69bd f871 973c d669 583d
000003f0: b746 6fbc 5ba3 cdbd 4996 293e a397 5ebd
-0.16210413 0.12521406 -0.025827182 -0.042039722 -0.11962019 -0.021132853 -0.10986085 0.12906548
0.23237005 -0.13269314 0.029453758 -0.10593442 -0.1406927 0.09834382 0.02304977 0.12753284
0.12621062 -0.11825227 -0.072307065 0.05144355 -0.036975123 0.045704678 -0.04750017 -0.17399772
-0.15772001 0.15957493 -0.022584956 -0.08380819 0.18713911 -0.16199219 0.018426782 0.109692715
-0.062607296 -0.013303578 -0.17282555 -0.024130726 -0.010530689 0.010622427 0.14590715 -0.16590184
0.08259344 -0.12501891 -0.18559349 -0.17736071 0.0018775922 -0.08897136 -0.074852444 0.13332339
-0.1679676 -0.05369847 0.15237655 0.04442995 -0.04229176 0.00992149 0.19834845 -0.061206214
0.3037409 -0.04349657 0.14660661 0.08975149 0.01892393 0.030407868 -0.04322317 0.14016445
-0.032819524 -0.15068027 0.026389584 -0.024520885 0.16583255 0.045606147 0.052033834 -0.124450855
-0.2159963 0.0039700554 0.045062363 0.1337721 0.0649572 -0.009364086 -0.01620918 -0.075767025
-0.22536866 0.107180685 -0.08859941 0.068422206 0.040353607 -0.15720934 0.0031581137 0.048941962
0.25562945 0.13324495 0.079974785 0.17218739 -0.1914708 0.17452823 0.005699073 -0.13729502
-0.18062198 -0.010247671 0.1881467 -0.277525 0.054049965 0.068175755 -0.02791239 0.026072748
-0.07065736 0.0024129166 0.13867038 0.027205093 -0.17741765 -0.09091321 -0.059440512 -0.03245034
0.14206687 -0.17821664 -0.03531935 -0.1740665 0.13273591 0.09354234 -0.15893485 0.04947534
-0.3836051 0.02095938 -0.18390235 -0.15028547 -0.085172005 -0.23944321 0.05807803 0.06082644
-0.122274816 0.11118648 -0.09567609 -0.029307803 -0.13415654 -0.13085473 -0.1521451 0.027589288
0.2949991 0.088954106 -0.04539553 0.054102823 0.08688422 0.038328506 -0.11244636 -0.0005247213
0.057548165 -0.14461355 -0.08147858 -0.115547515 0.024871428 -0.041348066 0.2550244 -0.04052922
0.025192149 0.006447821 -0.047356997 -0.14346746 0.08781604 -0.11778556 -0.10199612 -0.084437095
0.028457098 0.013178956 -0.11460421 0.107281715 -0.024001596 0.051416725 0.16597746 -0.12662129
-0.0880533 0.013180647 -0.2052197 -0.20374638 0.097337335 -0.0114338985 0.021081256 0.09373289
-0.1502223 -0.033198565 0.15459183 -0.020354077 0.056032382 -0.0056115254 0.057894617 0.03824944
0.053742975 -0.016536077 0.08414926 0.07783567 -0.06699791 0.078797735 0.05972916 0.09834661
-0.013538748 -0.15940621 0.0172126 0.03353268 0.06720977 -0.12284028 0.23358852 -0.019174637
-0.10217762 0.058892366 -0.15745577 -0.12264682 -0.093433164 -0.081187814 -0.05308963 -0.16752313
-0.26865795 -0.13304736 0.13023032 -0.08459587 -0.11789887 -0.078592464 -0.0959459 0.046609286
0.048956297 -0.07466151 0.04352601 0.0039523896 -0.05212285 -0.08699914 0.19089176 -0.08903487
0.017755497 0.018948263 -0.09053451 -0.2494662 0.16871597 0.11322975 0.106364176 -0.0037320224
-0.081196114 0.06898109 0.3316667 -0.1518586 -0.049731992 0.104851894 -0.015810907 -0.14441118
-0.033144165 -0.024661973 0.12605633 0.016353032 0.19591258 -0.119687535 -0.11307706 0.095741495
-0.30523834 -0.057057854 0.018486962 0.052835308 -0.014604262 -0.10040923 0.16561235 -0.05434383

fc_layers.0.bias f4 [64]
00000000: cdc4 523d 1210 a83c 0812 5f3d 1999 3d3d
00000010: 2fb9 9d3c e282 7f3d 93ec a33c 36c2 163d
00000020: f336 7abd 34b2 b23c 5e04 183d 4692 c63d
00000030: b9b0 84bd 9ec2 8e3b 0817 793d 27f3 3f3c
00000040: ce9c 85bb 05c0 d13d 974a 8dbd e0e3 2cbd
00000050: 4870 c7bd 5812 70bc f294 cc3c dd3b d3bd
00000060: 9ccb b33d fdd2 71bb 015e 8e3d b81e 603d
00000070: 19c9 e0bd be9d 443d d42c 573d de3a fcbc
00000080: 35b3 973d 748c 523c 2d6f 913a a3a6 84bc
00000090: aa68 8d3d 4847 0dbe 0d16 623d 4723 413d
000000a0: e69f 12bd af02 4fbd e669 fdbd 3a2b ff3c
000000b0: 7cba 07be f2c6 f7bd 3d36 87bc 3717 06bd
000000c0: 68a5 113d 1b43 803b 94a9 853d 47c6 19bc
000000d0: d5b0 69bd f5aa 11be c0dc 283d 72c7 e2bd
000000e0: 159a 9ab9 43df 723d 0ddb dd3c cebb 9e3d
000000f0: 8d20 b4bd a531 ad3c 3229 abbd 496e 8b3d
0.051457215 0.020515475 0.054460555 0.046288583 0.019253341 0.06238068 0.020010268 0.036806308
-0.06108756 0.02181349 0.03711354 0.09695868 -0.0647902 0.0043566963 0.06081298 0.011715687
-0.0040775305 0.10241703 -0.068989925 -0.042209506 -0.09738213 -0.014652811 0.024973366 -0.103141524
0.0877907 -0.003689944 0.069515236 0.054716796 -0.10975856 0.048001997 0.052532986 -0.030789789
0.07407228 0.012850869 0.0011095755 -0.01619274 0.06904729 -0.13796723 0.05519681 0.047152784
-0.035797022 -0.05053967 -0.12373714 0.031148542 -0.13254732 -0.12098493 -0.016505355 -0.032736983
0.035558134 0.0039142496 0.06526485 -0.009385652 -0.057053406 -0.14225371 0.04122615 -0.110731974
-0.0002948797 0.05929495 0.02708199 0.07750665 -0.08795271 0.021141836 -0.08357467 0.068081446

fc_layers.2.weight f4 [64, 64]
00000000: 10ec ac3c 0083 e9bd c5cf be3d 3ada 733c
00000010: f75b 3cbe ba78 95bd 43f7 3ebe 1cfc 46bc
00000020: ee1e f23d 955f 5bbc 7872 86bc 8ad8 493d
00000030: 34b2 bdbd 8c03 0c3e 4a23 fb3a d088 9fbd
00000040: b3e5 4fbe 17a1 223e b621 4cbd 5e1c 213b
00000050: 616f 113e 6e1c 2a3e d7b5 b8bc 060e dbb8
00000060: 99e1 d0bd 3bd0 ee3d d96b 2b3d b9bc 0b3e
00000070: 80d9 173e 7dcb 183e b475 2e3e 29f2 253d
00000080: 8c1c acbd 2cff bc3d 4ff2 d83d bac4 373e
00000090: a97a 81bd 7d6f fd3d 0bc3 04bc c8e4 553d
000000a0: 2f9b 013e 6860 0dbe 17c5 673e 0f4e ed3a
000000b0: b251 b63d faa7 f13d 5dcd 653e f538 dbbd
000000c0: 0966 353e 5895 63bd 1872 16be a2b1 14be
000000d0: 2899 93bd c066 983e 5663 003d 0092 73bc
000000e0: f14a 593d 3f41 c0bc 2bda b7bd 68c8 8c3e
000000f0: 1478 ac3d d540 fdbd dbee 193d 0e35 7b3e
00000100: 88f2 ff3d bac8 60be fac5 24bd 7e84 d0bd
00000110: 3a5a f0bc b4d6 c33c 5760 f9bd 8a9d 9b3c
00000120: 6eed ac3d 3215 993c a552 8e3d 227a 513e
00000130: 30d6 cabd 014e 8f3e 1021 a7bd 0da0 983d
00000140: ba30 a1bc 472b ab3d cddf fb3b a669 38bb
00000150: 38fd 373e 7845 b93d 37cf 553d edce 2bbd
00000160: 1aec c73d 3ecd cb3b 856e ed3d cb85 ccbd
00000170: bb01 ee3d a074 82bd 52dc 133d db64 58bc
00000180: 22e7 e33d bbb7 f5bc 241b 1f3e 8410 023e
00000190: b822 00be d082 8f3e 280b f7bd 8a8a f0bd
000001a0: 167c babd bb94 cc3d fc80 583e 933b a6bc
000001b0: 2cc1 ae3d acdc fabd 7d5c db3d 4685 0ebe
000001c0: ac3c 193e e8d5 fabc ddef 07be 4690 1ebd
000001d0: 7c6f db3d 0982 663e f67c 673d 825f d7bd
000001e0: bd2c b43d afcd 0cbe 69b3 43be dca5 a03e
000001f0: 8f9e 05ba 21ad 18be e313 3e3e 0f5d 153e
00000200: aa6c 87bd f889 76bd 6427 b83d 7075 7e3d
00000210: 3ea8 9bbd 0cdc e9bd 524c 90bd e444 2abd
00000220: 3e06 9d3d 9c5f b13d da99 c5bd a885 4cbd
00000230: 1019 8cbc 82b9 813d 2a79 cf3d acc4 4ebd
00000240: c476 d8bd f2a0 eb3d ec7a 08bd eeb6 ae3d
00000250: f481 7abd eac7 efbd be02 b6bd c88f 8cbc
00000260: 229c 883d fc68 e4bd ceae ffbd b68e eebd
00000270: f824 f43d ece0 bc3d 0093 9f3b 7652 f13d
00000280: 5eae b3bd f8ad 09bd a2bb b4bd 20c7 803c
00000290: fcf1 e93d 560f f13d 2875 ecbc 108c 433d
000002a0: 687e 74bd 0e25 c1bd 2a47 84bd de29 aabd
000002b0: d80b fabc 48a3 093d a09d f5bb 584f 833d
000002c0: e0d1 9ebb 4814 813c 50a8 a23d 2409 303d
000002d0: a6fe debd 1033 babc f2b3 ebbd ec72 033d
000002e0: b603 93bd ec90 723d f083 b2bd 545c 96bd
000002f0: d25c b63d b8b9 98bc bc42 2fbd 9cfb 56bd
00000300: 9b73 cdbd 0e5d 98bd 3b80 87bd 3e37 b2bc
00000310: 8959 883d 0635 6abd 10bd d0bd 90cb 14be
00000320: 5f0a 703e c040 113b 6d1c c93d c387 293e
00000330: a6e2 af3d 2631 0a3e 0ae8 ddbd ae19 ad3d
00000340: eee6 34be 30a4 a03d e020 ccbd a05c 083d
00000350: 2f55 633e 7bb1 7f3d 1f3d bd3d 541a 41bd
00000360: 047c 283d 8e5a a03d 443f 8c3d 6d96 99bd
00000370: 44da 65bd 60d1 31bd 639a 233d efcd ccbd
00000380: cda4 f3bd 6280 1c3d 7f3b de3b 70df 2a3e
00000390: a6f9 81bd 601a 8d3d 90b9 963d cca0 d4bb
000003a0: 42e4 8e3d 24a2 4a3e ec71 923e 2374 25be
000003b0: 60ec bc3b d8ef b6bc fe6e 493e a775 2abe
000003c0: b603 b7bd d102 bcbd 07f7 9b3d 10f7 ae3c
000003d0: effc 0cbd 6fc1 873e ffbb fdbd c8d5 d1bc
000003e0: 7385 e3bc ff6f cd3d c65a 3cbe fdb3 2b3e
000003f0: d0f0 713a 286c 49bc cfe6 393e c71f 85bd
0.021108657 -0.114019394 0.09316973 0.014883572 -0.18394457 -0.072984174 -0.1864901 -0.0121450685
0.118223056 -0.013389488 -0.016412005 0.049278773 -0.09262505 0.13673228 0.0019160297 -0.07789767
-0.20302467 0.15881763 -0.049836837 0.0024583559 0.14202644 0.16612408 -0.022547645 -0.00010445346
-0.10199279 0.116608106 0.0418509 0.1364621 0.14829063 0.14921375 0.17037088 0.040514145
-0.084038824 0.09228358 0.10593092 0.17946139 -0.06322224 0.1237478 -0.0081031425 0.052220136
0.12656854 -0.13806307 0.22633778 0.0018104928 0.08902301 0.11799617 0.22441621 -0.10704223
0.17714705 -0.055562347 -0.14691961 -0.14520887 -0.072069466 0.29765892 0.031344734 -0.014866352
0.053049985 -0.023468612 -0.08977159 0.27496648 0.084213406 -0.12365881 0.037581306 0.24531958
0.12497431 -0.21951571 -0.040227868 -0.10181521 -0.029339898 0.02390609 -0.121765785 0.018996019
0.084437236 0.018686865 0.06949357 0.20456746 -0.09904134 0.279892 -0.08160603 0.07452402
-0.019676555 0.08357864 0.0076865912 -0.0028139143 0.17967689 0.09046453 0.05219957 -0.041945387
0.0976183 0.006219535 0.115933456 -0.099864565 0.11621424 -0.06369901 0.036098786 -0.01320764
0.111280695 -0.029994836 0.15537697 0.12701613 -0.12513244 0.2802949 -0.12062675 -0.11745174
-0.09105699 0.099893056 0.21142954 -0.02029208 0.08532938 -0.12249121 0.10711 -0.13918027
0.1496455 -0.030619577 -0.13275094 -0.03871181 0.10714623 0.22510542 0.056515656 -0.105162635
0.08797596 -0.13750337 -0.19111408 0.3137654 -0.00050971744 -0.14909793 0.18562274 0.1458628
-0.06612523 -0.06019017 0.08991888 0.062123716 -0.07600449 -0.11418924 -0.07045807 -0.041569605
0.07667206 0.08660814 -0.096484855 -0.049932152 -0.017101794 0.06334211 0.10130532 -0.05048053
-0.10569528 0.11505307 -0.033320352 0.08530985 -0.06115909 -0.117080525 -0.08887242 -0.017158404
0.06670405 -0.11152837 -0.12484513 -0.11648314 0.11921114 0.09222588 0.0048698187 0.11783306
-0.08773492 -0.033613175 -0.088248506 0.01571995 0.11423108 0.11770503 -0.028864458 0.047740996
-0.059690863 -0.09430896 -0.06458886 -0.08308767 -0.030523226 0.033602983 -0.007495597 0.06411618
-0.0048467964 0.015756741 0.07942259 0.042977467 -0.10888414 -0.022729427 -0.11508931 0.03209202
-0.07178442 0.05922024 -0.08716571 -0.07341829 0.08904423 -0.018643245 -0.042788252 -0.052486047
-0.100318156 -0.07439624 -0.06616255 -0.021754857 0.066577025 -0.057179473 -0.10192311 -0.14530778
0.23441456 0.0022163838 0.09819875 0.16555695 0.08588152 0.13495311 -0.108352736 0.08452164
-0.17666218 0.07843816 -0.09967208 0.03329146 0.22200464 0.062425118 0.092401735 -0.04714425
0.041133896 0.07829772 0.068480045 -0.074993946 -0.056116357 -0.043412566 0.039942157 -0.10000216
-0.11896668 0.038208373 0.006781995 0.16686797 -0.06346445 0.06889796 0.07359612 -0.006488895
0.069771305 0.19788414 0.2860254 -0.16157584 0.005765483 -0.022331163 0.19671246 -0.16646443
-0.08936255 -0.09180225 0.07615476 0.021358043 -0.034420904 0.26514766 -0.12389373 -0.025614634
-0.027773594 0.10031127 -0.18394002 0.16767879 0.0009229304 -0.012293853 0.18154453 -0.06500202

fc_layers.2.bias f4 [64]
00000000: 60d3 b03c 9102 4cbc bc42 93bd a16e a73c
00000010: 5090 eb3d bc39 0d3d 0a86 cdba 3906 63bd
00000020: c269 a43d bf2e 7d3d ee18 74bd 719b 90bc
00000030: 85b0 30bc 9331 e5bd c5fe 293d 1897 ddbd
00000040: c8a3 2a3d 11f3 fe3d 91db da3d e6ff aabd
00000050: 6256 923c 0c07 96bd 266b e1bd e663 963d
00000060: f183 a83d f344 23bd 84e1 e4bd c9b9 3b3d
00000070: 896b 9fbd 08df 72bb ac37 7cbd 4315 07be
00000080: d12d 84bd cb0e af3b 4cc2 01bd 6d0f 073e
00000090: 6321 2d3d 87ec 903b 8e81 d43d 2067 783d
000000a0: 99da a03d a89f d13d 1281 0f3d 1836 ed3c
000000b0: 0137 6ebd 4225 e1bd 4530 dbbd e266 f73b
000000c0: 47bb 453c 62c8 d63d 26cc 863d d472 8dbd
000000d0: b3e6 cc3d 1b10 f83c aa59 f23b 21d6 aebd
000000e0: 9638 633d 2a8a ff3d 54a6 35bd 7025 803b
000000f0: 4c08 d8bc abfa a3bd 5059 eebd de54 5b3d
0.021585166 -0.012451784 -0.07190463 0.020438494 0.11502135 0.034478888 -0.0015680206 -0.055425856
0.08027984 0.06181216 -0.059594087 -0.017652245 -0.010784273 -0.11191096 0.041502733 -0.108198345
0.0416601 0.12448705 0.1068641 -0.0834959 0.017863456 -0.07325563 -0.11006765 0.07343273
0.08228291 -0.039860677 -0.11175826 0.045831475 -0.077841826 -0.0037059207 -0.06157653 -0.13191704
-0.06454051 0.0053423396 -0.031679437 0.13189478 0.04226817 0.0044227275 0.10376273 0.060645223
0.07854194 0.1023553 0.0350352 0.028956458 -0.058157925 -0.109934345 -0.10702566 0.0075501064
0.012068576 0.10487439 0.06581907 -0.06906667 0.1000494 0.030281117 0.0073959427 -0.085369356
0.055473886 0.124775246 -0.044348076 0.003910713 -0.026371144 -0.080067955 -0.11638129 0.053547733

fc_layers.4.weight f4 [64, 64]
00000000: 52f2 6c3d 7866 b4bd e4d3 ab3d 8648 183d
00000010: fe9b a33d 8a63 1b3d 0644 d4bc 9555 033e
00000020: 0fa6 293d 7ce4 2bbd a3bc 563e 6233 aa3d
00000030: fefa c03d 72cd 573e f411 9b3d a372 c1bd
00000040: 4eba d73d 09eb ab3d e2f2 03be 61d0 8d3e
00000050: 8f77 c33d cfa0 673d 713b a73e bccd 943d
00000060: 36c1 6f3d acb8 3c3e a0e6 91bb ad6a 4e3c
00000070: 15d8 c43d 3f82 683e e137 8d3d 48fb 9b3d
00000080: a134 6d3d 439a 993d 34a8 13bd 8903 693d
00000090: 5d3a 543d a19a a8bc e44d a23d 0aaf d4bd
000000a0: fd0d e8bd 2b54 f6bd 525f 983d dc5a 1dbd
000000b0: 986f 96bd b7bf e13d 7c7c 193e 7b45 de3d
000000c0: aba2 fdbd a4f8 dbbd b4c5 f3bc d8a8 853c
000000d0: ff9d 03be 64a6 3b3e 4e3a a639 4917 4e3d
000000e0: fa21 34be 499d 3c3e c054 bf3b 2bb1 2f3e
000000f0: 0e4e b73d fc5c 883e c8e8 893c bf97 07be
00000100: df6c 6dbd 085f 9e3c 301e a23d 9b92 aebb
00000110: 3396 963c 36ea dfbd 24f3 20be 96d4 c23d
00000120: abc4 7e3d 38d2 e33d db1f 483e 9be8 bfbc
00000130: ec5f 83bd 3522 813b 2d52 843e db55 e1bd
00000140: 5023 183d 8638 2c3e 1c4a a63d 1637 0e3e
00000150: c37a 12bc debd 03be 4476 d7bd 5dfd c2bd
00000160: 52c5 0abe 1a3e 753e 060a ccbd ba7e 9abd
00000170: 2e1d 30bd ddee b03c 1fe9 c3bd 8f3f babd
00000180: d35f c33d 3e9e 593d 9d4a a43d 8c85 81ba
00000190: 2844 4bbd 6447 a03d cc34 283e d0f5 0e3d
000001a0: 1c7e 6bbd 1285 a73a 4c3e a0bd 184f 31be
000001b0: 2545 babd 7c53 9a3d f5e9 343e 9209 26bd
000001c0: bc8c 2d3e a194 e03d 58d9 b03d 46e2 bfba
000001d0: a63a b9bb 7f44 523c 3b8d ddbd c359 ddbd
000001e0: 4111 e83c 048b 353e ca70 dd3d 8fce 833e
000001f0: a156 83bd 2858 563d 8cf1 b23d a1b6 3bbe
00000200: 5463 c2bd b28f 2e3d a492 04bd 20ff 1bbe
00000210: 468e 123d dbb6 c63c a041 a1bd 0ce5 c4bc
00000220: c23f e8bc d475 c9bd 9419 64bd c613 41bd
00000230: cab6 3abd 0438 71bd cc47 12be b06f 753d
00000240: f34a 893d b9c8 9ebc eef1 0fbe 78b1 e93c
00000250: 9158 233b e4c4 183d 30f0 3abc 1183 ab3d
00000260: fabd 50bd 1413 c63d 46e0 a13d bd3f 813d
00000270: 04a5 b13d 0d90 87bd 3a85 84bd 666c d03d
00000280: bc45 c4bd d5ba 88bd fae3 d13d 4a1c 49ba
00000290: ce7e 0cbe f278 833d f13a 7e3d 3420 88bc
000002a0: e3ba 06bd b8f4 773d 613c 66bd f9dc 83bd
000002b0: 1ef8 83bd fc36 4f3d 6c2d 803d 0488 d7bd
000002c0: 3ec3 933d 6e36 adbd 55f0 9c3d 68a3 d8bc
000002d0: bae8 753d 4267 8dbd 1db7 9fbb 3c95 4ebd
000002e0: 886b b63d 488a 7bbd 381e 9d3d f23b edbd
000002f0: 4315 cbbd 68c6 ce3c 1c87 f43d 2039 b33d
00000300: 518b 12be 43d6 903c 0074 3f39 11c2 893d
00000310: 1504 bc3d 9a13 91bd 3e8f d8bd 4617 243e
00000320: 116a 833d e05e 123e 1764 593e be04 21be
00000330: df7e f9bd 7a04 803d a65c 0d3e 5575 6b3a
00000340: 391c 203e ba28 693d 388c e73d 839d d03d
00000350: e892 813d 5041 01bd afb5 643d 3e27 0c3c
00000360: adfd 013d a297 5b3e 1005 bc3d 6672 4dbd
00000370: 2b8d 623d d9f4 7b3e b5aa 9abd a256 cb3d
00000380: 706d c63a 8ddd 92bd f6e9 da3d 9247 533e
00000390: f769 6f3d 643c ccbd cb65 543e d858 253e
000003a0: 2090 14be 6c7a 23bd b549 e03c d9cf 013c
000003b0: 1bc1 e43d 566a ce3d 4cec 0a3d de4d c6bd
000003c0: 5a93 96bb d90f 8fbd fc7e 2d3d dafc db3c
000003d0: 45ee c93d 65f2 253e 6d55 2fbe 8dab be3d
000003e0: 2e45 2e3e eabf 623e 00d6 97ba 20c4 bd3d
000003f0: 118a 11be 977f 20bd 90d5 283c 883a 9ebc
0.057848282 -0.08808607 0.08390024 0.03717854 0.079887375 0.037936725 -0.025911342 0.12825616
0.04141813 -0.041965947 0.20970397 0.08310582 0.09422873 0.21074465 0.07571784 -0.09445693
0.10533582 0.08394439 -0.12885621 0.27698043 0.09544288 0.056549843 0.32662538 0.07265803
0.05853387 0.18429822 -0.0044525415 0.012598676 0.09611527 0.22705935 0.06895424 0.076162875
0.05791152 0.07500126 -0.036049083 0.056888137 0.051813472 -0.020581545 0.07925013 -0.103849486
-0.11330793 -0.120277725 0.07440056 -0.03841673 -0.073455036 0.11022895 0.14988893 0.10853096
-0.12384542 -0.10740784 -0.029757358 0.016315863 -0.1285324 0.18325192 0.00031705428 0.050315175
-0.17591086 0.18419375 0.0058389604 0.17157428 0.089504346 0.2663344 0.016834632 -0.1324148
-0.057965156 0.019332424 0.07915914 -0.0053275353 0.018382167 -0.10933344 -0.15717751 0.09513204
0.062199276 0.111240804 0.19543402 -0.023426345 -0.0641478 0.0039408454 0.25843945 -0.11002704
0.03714305 0.16818437 0.08119604 0.13888201 -0.0089404015 -0.12865397 -0.10520604 -0.095209815
-0.13551834 0.23949471 -0.09962849 -0.075437024 -0.042996578 0.021598274 -0.09565949 -0.09094154
0.095397614 0.053129427 0.08022044 -0.0009881719 -0.049625546 0.07826117 0.1642639 0.034902394
-0.057493314 0.0012780747 -0.07824382 -0.17315328 -0.090952195 0.07535455 0.17667373 -0.04053647
0.16948217 0.10965849 0.08635205 -0.0014639578 -0.0056527434 0.012833714 -0.10817953 -0.10808136
0.02832854 0.17728812 0.108125284 0.2574353 -0.064130075 0.052330166 0.08737478 -0.18331386
-0.094916016 0.042617507 -0.03236641 -0.15234041 0.035780214 0.024257114 -0.07873845 -0.024035
-0.028350715 -0.09836927 -0.055688456 -0.047137998 -0.045584477 -0.05889131 -0.14285201 0.059920967
0.067037486 -0.019382821 -0.14057133 0.028527007 0.0024924616 0.037297145 -0.011409804 0.08374608
-0.050962426 0.096716076 0.07904105 0.06310985 0.08674052 -0.066192724 -0.064707235 0.10176925
-0.09583613 -0.066762604 0.10248561 -0.0007671757 -0.13720247 0.06419553 0.06206793 -0.016616918
-0.032893073 0.060536116 -0.056209926 -0.064386316 -0.06443809 0.050589547 0.062586635 -0.1052399
0.07214974 -0.08457647 0.07663027 -0.026445106 0.0600364 -0.069044605 -0.0048741237 -0.05043529
0.08907229 -0.061411172 0.076717794 -0.11583699 -0.09916165 0.025241092 0.119398326 0.0875113
-0.14310957 0.017680293 0.00018258393 0.06726468 0.09180466 -0.07083817 -0.10574196 0.16024503
0.06416715 0.14294004 0.21229587 -0.15724465 -0.12182402 0.06250854 0.13804874 0.00089820224
0.15635766 0.056923606 0.113060415 0.10186293 0.06326848 -0.031556427 0.05583733 0.008554278
0.031736065 0.21444562 0.09180653 -0.050157927 0.05531041 0.2460512 -0.07552091 0.09928633
0.0015138816 -0.07171164 0.10689156 0.2063277 0.058450665 -0.09972456 0.20741956 0.16147172
-0.14508104 -0.039911672 0.027378896 0.00792309 0.111696444 0.10078876 0.033916757 -0.09682821
-0.0045952024 -0.069854446 0.04235743 0.026853967 0.098598994 0.16205747 -0.17122431 0.093100645
0.17018577 0.22143522 -0.0011584163 0.092659235 -0.14212824 -0.03918418 0.0103048235 -0.01931502

fc_layers.4.bias f4 [64]
00000000: 933c a33c 676a ed3d f661 6abd 9d89 8a3d
00000010: 81f3 503d ec2a e3bd 7aa3 9c3c f9d1 933d
00000020: 5354 493d 7f6c 33bd 2915 0e3e 0fe4 e63d
00000030: c3ac 2fbc 4886 babd 1be9 d6bd 45b7 7cbc
00000040: 042f e63d b3b8 8c3d 3159 983d 08f5 b4bd
00000050: 0890 01be 7701 f83d b6e5 273d 5c30 c1bd
00000060: 0e8a c3b9 64f1 c83d 3afe cd3d b2b3 adbc
00000070: 03ed 32bd 8647 e33b 5705 dc3d 9fa5 dfbd
00000080: 822c bebd 1c6f 69bd ab25 823d fe2e 17bd
00000090: 73bf 1fbc 24f4 96bd e000 c13d 14e6 d23c
000000a0: 7b95 4d3d 923f cebd 58f8 01bd 829a aabd
000000b0: 2fb2 b23d 3a6e 823d 8640 363d 3195 ddbd
000000c0: a234 52bd 8dde 0e3e 7895 a0bd 2d08 2f3d
000000d0: 21f6 07bc 2e2b a9bd 0379 91bc 9836 d3bc
000000e0: bf08 703d 6928 a7bc 1bcd 833d 480e 033e
000000f0: 845f c03c 7769 04be 9afc f13c 4df6 aebd
0.019926345 0.1159256 -0.05722233 0.06764529 0.051013473 -0.11092171 0.01912092 0.072177835
0.049152683 -0.04380464 0.1387526 0.112739675 -0.010722342 -0.09107643 -0.1049368 -0.015424554
0.11239436 0.06871166 0.07438887 -0.088357985 -0.126526 0.121096544 0.040990554 -0.09433052
-0.00037296157 0.098116666 0.100582555 -0.02120385 -0.043683063 0.0069360165 0.10743206 -0.109202616
-0.09285833 -0.056990728 0.06354841 -0.03691005 -0.009750235 -0.07370785 0.09423995 0.025744475
0.050191384 -0.10070719 -0.03173098 -0.08330251 0.08725392 0.0636868 0.044495128 -0.10819472
-0.051319726 0.13952084 -0.07841009 0.042732406 -0.008298428 -0.08260189 -0.017757898 -0.025782868
0.05860209 -0.020405011 0.06435605 0.12798417 0.023483045 -0.12930857 0.029539395 -0.08543072
